Files for Conversion/pose_classifier_no_orientation.tflite (tflite, 35400 bytes, 6 tensors)

arith.constant f4 [8, 64]
0.04467813 -0.16871801 0.0464448 -0.07035312 0.26250455 0.028587906 0.11476558 0.18100783
0.020012768 0.1900991 0.034931384 0.27664337 0.017953452 -0.21408637 -0.08505082 -0.23894389
-0.173472 0.21262495 0.15993991 0.20357828 -0.020707518 0.061463013 -0.06522818 -0.23991884
0.11504869 -0.22952037 0.21619882 -0.40320998 0.24955177 -0.09507436 -0.19263752 -0.11454966
-0.0988351 0.14249104 0.054804597 -0.065704145 -0.21630971 -0.3278478 -0.20599735 -0.26325035
0.2873083 -0.25553447 -0.10608904 -0.403108 -0.34319773 0.17224488 0.16256535 0.11905324
0.08349653 0.28575402 0.03613109 -0.27135843 -0.08407743 -0.24870093 0.11343004 0.25883317
0.26670167 -0.39481363 0.080258235 -0.08423714 0.03726564 0.21870278 0.29182568 0.06330044
-0.27545553 -0.28733876 -0.29871482 -0.25882125 0.17184378 0.095532075 0.042129185 -0.041294605
-0.2474527 0.13246618 0.22156739 0.030483378 -0.16536285 -0.2582677 -0.101164274 -0.17011628
0.14732768 0.12830707 -0.13415948 0.005127491 0.26540974 0.14028905 -0.12525938 -0.2302683
-0.27851123 0.21997732 0.06299688 0.01798587 -0.06351802 0.05581716 0.2495593 -0.166846
-0.21922886 -0.35156497 -0.23195668 0.04775828 0.21960938 0.0032010388 0.103449054 0.27712584
-0.19946854 0.2517644 0.23868094 -0.0709873 0.17571692 0.26832706 0.23037907 -0.043281045
0.07215179 0.038959105 -0.113342375 -0.28971326 -0.058667686 -0.018088609 0.2791325 0.056427673
-0.026452973 -0.07502645 0.2862258 -0.12035115 -0.21736217 -0.16703351 -0.12705563 0.12362136
-0.10928767 -0.43116474 -0.22000371 -0.10669337 0.20954111 -0.16792761 -0.3735358 -0.15930031
0.29928365 0.06797361 -0.12940614 -0.13950293 -0.26815674 0.17432962 -0.05356694 0.16360317
0.2274059 -0.33436927 0.10949505 -0.24096541 0.06298107 0.29285443 0.14702047 0.18514618
0.24475513 0.057592683 0.1205686 0.1209109 -0.27628183 0.018567497 -0.37383488 0.20045248
0.35251057 0.2760965 0.09875658 -0.059157416 0.16272025 -0.09960944 0.12642248 -0.25896075
-0.20847958 -0.031290043 -0.057212077 0.2760266 0.05767992 0.044044614 -0.28751665 -0.060685534
-0.2124887 -0.117075644 -0.12892327 -0.20328687 0.19465426 0.0042097666 0.013049497 -0.2129451
0.17008975 -0.21108739 0.045868795 0.16886541 -0.25702333 -0.007603482 0.056069445 0.29942802
-0.19113079 -0.1809105 0.22710034 -0.03506287 -0.25679058 0.26914838 -0.019632341 -0.18767965
-0.09398497 -0.07174041 -0.09292485 -0.12461076 0.17847726 -0.24575593 0.22083488 -0.024270168
-0.076350674 -0.014145757 -0.21618515 -0.23365104 0.2487655 -0.2940476 0.06681392 -0.24422117
0.13213167 -0.22982445 -0.29672045 0.07255868 -0.060310327 -0.08598731 0.1097622 0.08695242
-0.020349596 0.094185635 -0.13662048 0.12242058 0.00775974 0.0032834176 0.18372144 0.21787931
0.24720384 -0.20606945 0.032613527 0.048358597 0.28253612 -0.339285 -0.22728185 -0.06767202
0.29394534 0.023656785 -0.3372068 -0.25323188 0.1672052 -0.23075859 0.18373935 0.046875037
-0.18565129 0.15696518 0.08823701 0.113310255 -0.24480964 -0.33421794 0.2186061 0.32980284
00000000: 6a00 373d 6ac4 2cbe e73c 3e3d 4c15 90bd
00000010: ff66 863e 2f31 ea3c 370a eb3d 1e5a 393e
00000020: d1f1 a33c 57a9 423e 3614 0f3d 33a4 8d3e
00000030: 1e13 933c 7539 5bbe 202f aebd b5ad 74be
00000040: a5a2 31be 5bba 593e 4ac7 233e d376 503e
00000050: d0a2 a9bc a4c0 7b3d 5a96 85bd 49ad 75be
00000060: a69e eb3d 6307 6bbe 3963 5d3e 8a71 cebe
00000070: 808a 7f3e 59b6 c2bd c542 45be 0399 eabd
00000080: 0f6a cabd 2ce9 113e c97a 603d e58f 86bd
00000090: 4b80 5dbe abdb a7be f8f0 52be c0c8 86be
000000a0: 131a 933e 6ad5 82be 3645 d9bd 2c64 cebe
000000b0: 9db7 afbe f660 303e 8877 263e 2fd2 f33d
000000c0: 3b00 ab3d 5a4e 923e 32fe 133d 7eef 8abe
000000d0: ca30 acbd 75ab 7ebe 024e e83d c885 843e
000000e0: 1f8d 883e 0325 cabe 6e5e a43d 8684 acbd
000000f0: dba3 183d 9ff3 5f3e 2d6a 953e a9a3 813d
00000100: 8208 8dbe 111e 93be 26f1 98be 3884 84be
00000110: d1f7 2f3e 52a6 c33d a78f 2c3d 8824 29bd
00000120: 3e64 7dbe 37a5 073e 90e2 623e 47b8 f93c
00000130: e154 29be aa3b 84be 372f cfbd f632 2ebe
00000140: 11dd 163e ee62 033e 1a61 09be 8304 a83b
00000150: c9e3 873e efa7 0f3e ff43 00be 74cb 6bbe
00000160: 0699 8ebe bc41 613e 8204 813d 1a57 933c
00000170: bc15 82bd 89a0 643d 798c 7f3e aed9 2abe
00000180: 887d 60be 5300 b4be 0d86 6dbe 309e 433d
00000190: 48e1 603e 85c8 513b 19dd d33d 70e3 8d3e
000001a0: 7b41 4cbe 43e7 803e c768 743e ca61 91bd
000001b0: 23ef 333e 2a62 893e 7ee8 6b3e 7747 31bd
000001c0: 51c4 933d 9593 1f3d 0c20 e8bd 4c55 94be
000001d0: 874d 70bd 902e 94bc 74ea 8e3e b420 673d
000001e0: e8b3 d8bc 78a7 99bd 308c 923e aa7a f6bd
000001f0: 3094 5ebe d50a 2bbe df1a 02be 322d fd3d
00000200: 37d2 dfbd a0c1 dcbe a748 61be 0e82 dabd
00000210: f291 563e 37f5 2bbe 1640 bfbe 9f1f 23be
00000220: b53b 993e bf35 8b3d 0b83 04be dbd9 0ebe
00000230: d74b 89be 7783 323e 0269 5bbd 9787 273e
00000240: 18dd 683e 7332 abbe f13e e03d a3bf 76be
00000250: 38fc 803d 04f1 953e 898c 163e f696 3d3e
00000260: 17a1 7a3e 4ee6 6b3d acec f63d 22a0 f73d
00000270: d074 8dbe dd1a 983c 4967 bfbe 6a43 4d3e
00000280: 447c b43e 855c 8d3e e440 ca3d 0c4f 72bd
00000290: 23a0 263e 0900 ccbd e574 013e 8196 84be
000002a0: ac7b 55be fd29 00bd 3657 6abd 5c53 8d3e
000002b0: c841 6c3d 2068 343d 6235 93be 6591 78bd
000002c0: a396 59be 5bc5 efbd 7604 04be 6f2a 50be
000002d0: 7253 473e 15f2 893b 8fcd 553c 480e 5abe
000002e0: 022c 2e3e 4b27 58be ebe0 3b3d 0eeb 2c3e
000002f0: 9098 83be a126 f9bb 13a9 653d a14e 993e
00000300: cab7 43be 9a40 39be fe8c 683e 159e 0fbd
00000310: 0e7a 83be d1cd 893e 01d4 a0bc 182f 40be
00000320: 317b c0bd a3ec 92bd 624f bebd ed33 ffbd
00000330: bec2 363e 71a7 7bbe 8a22 623e 3bd2 c6bc
00000340: be5d 9cbd 9bc3 67bc a45f 5dbe 3842 6fbe
00000350: 62bc 7e3e 688d 96be bdd5 883d 1d15 7abe
00000360: 864d 073e 1a57 6bbe beeb 97be a599 943d
00000370: f607 77bd 1d1a b0bd 01cb e03d 1c14 b23d
00000380: 32b4 a6bc 66e4 c03d 3de6 0bbe a4b7 fa3d
00000390: 6b45 fe3b 9b2e 573b 7921 3c3e c11b 5f3e
000003a0: 0123 7d3e df03 53be c395 053d aa13 463d
000003b0: 93a8 903e c3b6 adbe 93bc 68be a197 8abd
000003c0: 0180 963e e0cb c13c 5fa6 acbe 9ca7 81be
000003d0: d737 2b3e fb4b 6cbe 2b26 3c3e 0a00 403d
000003e0: 5f1b 3ebe 7bbb 203e 9bb5 b43d 350f e83d
000003f0: 61af 7abe 9d1e abbe 47da 5f3e ebdb a83e

arith.constant1 f4 [64, 64]
-0.120821424 0.28175384 -0.09567592 0.0714097 -0.26303977 0.01880459 -0.14883514 0.14874244
-0.06330182 -0.053290498 -0.109331876 -0.09985097 0.12041057 0.19021165 0.17635155 -0.043342408
-0.17022969 0.2136613 0.12761796 -0.07662725 0.23819864 0.17835996 -0.08800649 0.17526804
0.05377845 -0.14545617 0.16366102 0.075323954 0.15131758 0.11727231 0.18842529 -0.072926
0.16738972 0.051711783 -0.0051938095 0.055747125 0.17695561 -0.23916173 0.008770385 0.15547696
-0.008949233 -0.120896325 -0.1258636 0.1937825 -0.1296045 -0.08015715 0.1892392 0.10866988
0.0631366 -0.21341519 0.12498489 0.06509277 -0.02427983 -0.19288531 -0.015303782 -0.1169947
-0.1883456 -0.25769842 -0.1718075 0.11262196 0.20016748 0.08943553 0.24598686 0.20842537
-0.16616662 -0.10092456 0.021521695 -0.11882321 -0.056803852 0.13952969 -0.15050647 0.0426873
-0.15215102 -0.008984021 0.07063994 -0.06034421 -0.12445934 0.2824303 -0.09088637 -0.098323986
-0.11606922 0.07195835 0.13646644 -0.10657947 0.05283195 0.12904024 0.0053034294 0.06884967
0.12690614 0.04560592 0.1402655 0.22951937 -0.179871 -0.0051049776 0.061484225 -0.116206914
0.027629802 -0.080664776 0.18705188 0.16167298 0.027243923 0.1422168 0.22231913 -0.015682729
0.11841693 0.12233023 0.08181236 -0.06673148 0.23569496 -0.156809 0.124299265 -0.08147131
-0.050112847 0.18920459 0.05631361 -0.032902546 0.10867077 0.013179326 0.2191212 0.20217504
-0.07865638 0.009945891 -0.07001725 -0.11378651 -0.1776742 -0.18800427 -0.22171675 -0.02517104
0.03279034 0.19338092 -0.041557286 -0.046141736 -0.072232336 -0.11890036 0.09983949 0.2713532
0.11498511 -0.07671801 0.045757998 -0.09727973 -0.18023263 0.15793379 -0.06863182 0.09000933
0.20100945 -0.17345384 0.010478538 0.08816059 -0.053039577 0.09215476 -0.010649994 0.027372254
0.16938084 0.15648092 0.2274985 -0.0017107571 0.21130711 -0.2163421 0.1213316 0.04247109
-0.16587786 -0.0722626 0.15997007 -0.124941 -0.0155417835 -0.12597519 0.062551014 -0.19226733
0.086925566 -0.11243358 -0.21227056 -0.008800021 -0.1104621 -0.02564242 0.011920162 -0.0917701
-0.17076874 0.08998951 -0.11507977 0.077950224 -0.16773966 -0.18383211 -0.09822378 0.24307126
-0.09469866 -0.21746433 0.16149881 0.012392693 -0.066685475 -0.041830923 -0.07993186 -0.003462689
-0.0972273 0.07706367 -0.10109792 -0.1286063 -0.016036673 0.11913971 -0.030608956 0.026093856
0.03399344 -0.11828526 0.15017463 -0.12942688 0.11209242 0.008224638 0.14888889 -0.14833744
-0.015456842 -0.018984923 -0.08336937 0.2086258 0.049396448 -0.024829907 -0.14819385 -0.081269346
0.008139238 0.05531675 0.10030059 -0.020996101 0.15220791 -0.08349889 -0.08727731 -0.22253025
-0.12714511 0.14557874 -0.00038676776 0.12948684 -0.08595252 0.015292222 0.081392385 -0.052797712
-0.004362021 -0.15520999 -0.040596783 0.14717956 0.0984569 0.051910616 0.16685505 0.14127779
-0.17637429 0.043391515 0.077546366 -0.20379074 0.09464877 -0.11743673 -0.011558504 0.020520588
-0.1973812 -0.22580676 -0.1832194 -0.053209223 -0.16779481 -0.061667554 0.070790865 -0.16867265
00000000: 3971 f7bd 0a42 903e bdf1 c3bd 403f 923d
00000010: 26ad 86be 150c 9a3c 3d68 18be f04f 183e
00000020: 62a4 81bd 2347 5abd 64e9 dfbd aa7e ccbd
00000030: d199 f63d d8c6 423e 8095 343e cf87 31bd
00000040: b150 2ebe 07ca 5a3e 48ae 023e bfee 9cbd
00000050: 58ea 733e fea3 363e bf3c b4bd 7779 333e
00000060: cb46 5c3d 76f2 14be c196 273e 7243 9a3d
00000070: fff2 1a3e 772c f03d 8ff2 403e 3a5a 95bd
00000080: 3668 2b3e bccf 533d d530 aabb 1957 643d
00000090: da33 353e d0e6 74be a9b1 0f3c 5a35 1f3e
000000a0: ce9f 12bc 7e98 f7bd 63e2 00be eb6e 463e
000000b0: 0bb7 04be 6f29 a4bd ecc7 413e 508e de3d
000000c0: c34d 813d 8389 5abe 14f8 ff3d 5c4f 853d
000000d0: 7ee6 c6bc ba83 45be b7bc 7abc eb9a efbd
000000e0: abdd 40be 0cf1 83be 4eee 2fbe 58a6 e63d
000000f0: b4f8 4c3e fa29 b73d fbe3 7b3e 766d 553e
00000100: 9527 2abe 89b1 cebd 444e b03c 9559 f3bd
00000110: 28ab 68bd dfe0 0e3e 5e1e 1abe e1d8 2e3d
00000120: 7acd 1bbe b731 13bc acab 903d 7e2b 77bd
00000130: 8ae4 febd b49a 903e a222 babd 165e c9bd
00000140: b3b5 edbd e65e 933d dcbd 0b3e 5646 dabd
00000150: 5166 583d 2023 043e 64c8 ad3b 0e01 8d3d
00000160: aff3 013e 46cd 3a3d c2a1 0f3e 2007 6b3e
00000170: 1a30 38be a847 a7bb e2d6 7b3d e4fd edbd
00000180: e557 e23c 9333 a5bd 878a 3f3e 9a8d 253e
00000190: a62e df3c 48a1 113e a0a7 633e 1179 80bc
000001a0: 9384 f23d 4688 fa3d 3d8d a73d 84aa 88bd
000001b0: 055a 713e 8a92 20be 9d90 fe3d 6eda a6bd
000001c0: 2143 4dbd d9be 413e 1aa9 663d d2c4 06bd
000001d0: c88e de3d 1aee 573c 4f61 603e f906 4f3e
000001e0: 9916 a1bd 17f4 223c 3465 8fbd e708 e9bd
000001f0: 3af0 35be 3184 40be b709 63be 7f33 cebc
00000200: 2a4f 063d a605 463e f937 2abd 1eff 3cbd
00000210: 8cee 93bd 0882 f3bd a678 cc3d ceee 8a3e
00000220: 507d eb3d 551e 9dbd bd6c 3b3d 983a c7bd
00000230: e78e 38be 65b9 213e d78e 8cbd d056 b83d
00000240: 6cd5 4d3e e29d 31be 2dae 2b3c 8a8d b43d
00000250: 0740 59bd a3bb bc3d 507d 2ebc c73b e03c
00000260: 2c72 2d3e 893c 203e 5ef5 683e 7c3b e0ba
00000270: e460 583e c988 5dbe b47c f83d 2af6 2d3d
00000280: e3db 29be 6afe 93bd 32cf 233e 11e1 ffbd
00000290: f7a2 7ebc a4ff 00be bf1a 803d bae1 44be
000002a0: 0806 b23d 9443 e6bd 745d 59be f72d 10bc
000002b0: f439 e2bd 0d10 d2bc c84c 433c f6f1 bbbd
000002c0: 00de 2ebe 6c4c b83d f1ae ebbd 5ea4 9f3d
000002d0: f2c3 2bbe 7c3e 3cbe 8d29 c9bd ace7 783e
000002e0: 5ff1 c1bd f8ae 5ebe f25f 253e b90a 4b3c
000002f0: 6592 88bd e756 2bbd 51b3 a3bd 48ee 62bb
00000300: 1b1f c7bd 8fd3 9d3d 6d0c cfbd 5fb1 03be
00000310: 575f 83bc 85ff f33d a2bf fabc c8c2 d53c
00000320: b53c 0b3d 8b3f f2bd 61c7 193e 7b88 04be
00000330: b690 e53d a2c0 063c 5476 183e c5e5 17be
00000340: b23e 7dbc 4586 9bbc 8fbd aabd 00a2 553e
00000350: ee53 4a3d 1768 cbbc 21c0 17be 8b70 a6bd
00000360: 705a 053c d193 623d 656a cd3d 0400 acbc
00000370: 64dc 1b3e 7701 abbd 72be b2bd f8de 63be
00000380: 5432 02be 9812 153e 17c7 cab9 3398 043e
00000390: e007 b0bd 3a8c 7a3c 0db1 a63d 6a42 58bd
000003a0: 49ef 8ebb 5eef 1ebe d048 26bd 3db6 163e
000003b0: c5a3 c93d 3aa0 543d 0ddc 2a3e 20ab 103e
000003c0: 769b 34be 4dbb 313d a1d0 9e3d 85ae 50be
000003d0: 37d7 c13d ab82 f0bd e15f 3dbc cb1a a83c
000003e0: 4c1e 4abe e339 67be de9d 3bbe eaf1 59bd
000003f0: 67d2 2bbe 1e97 7cbd cdfa 903d 86b8 2cbe

arith.constant2 f4 [8]
-0.04594819 -0.04189125 0.03785822 0.005449027 -0.024401827 0.0040471894 0.03219228 0.022551395
00000000: 2b34 3cbd 2996 2bbd 3911 1b3d c08d b23b
00000010: 57e6 c7bc 499e 843b 0ddc 033d b4bd b83c

arith.constant3 f4 [64]
-0.014303841 0.062377304 -0.012441389 0.012142559 -0.00050467503 -0.02425093 -0.0019257473 -0.008371928
0.042654183 0.038022526 -0.015391473 -0.026486633 0.050152153 0.049325638 -0.0009981596 0.066974424
-0.02470168 0.050554212 0.043423112 -0.004487446 -0.0073977755 0.027092073 0.061004847 0.02929604
0.034637082 -0.07327209 0.023994733 0.11499522 0.028758748 0.036078274 0.040274233 0.054589517
0.08466171 0.076471746 -5.5446842e-05 0.020597098 0.050221905 0.022449665 0.089219086 -0.025793163
-0.039328527 0.04385997 -0.036878113 0.0515144 0.023773689 0.05962638 0.03518005 -0.013834902
0.0252525 0.071110785 -0.021693919 0.051954985 0.016213771 0.060565405 0.0050111073 0.0078081205
-0.02964769 0.035496 -0.0059754183 0.06654658 0.0025791237 0.018690294 0.002674925 0.05029503
00000000: a85a 6abc 587f 7f3d f8d6 4bbc 95f1 463c
00000010: 2b4c 04ba e3a9 c6bc 5b69 fcba 692a 09bc
00000020: 27b6 2e3d 82bd 1b3d 842c 7cbc 7ffa d8bc
00000030: 586c 4d3d ae09 4a3d aed4 82ba e329 893d
00000040: 2d5b cabc ef11 4f3d 6fdc 313d 6d0b 93bb
00000050: 0a69 f2bb 32f0 dd3c 38e0 793d 40fe ef3c
00000060: 9ddf 0d3d ad0f 96bd 9a90 c43c 9d82 eb3d
00000070: 7797 eb3c d0c6 133d 98f6 243d 4299 5f3d
00000080: 1e63 ad3d 389d 9c3d 988f 68b8 3fbb a83c
00000090: 7cb5 4d3d 5ce8 b73c 7fb8 b63d 2f4c d3bc
000000a0: f316 21bd 83a6 333d 810d 17bd c300 533d
000000b0: 0ac1 c23c cb3a 743d f518 103d c9ab 62bc
000000c0: 55de ce3c 88a2 913d 72b7 b1bc c0ce 543d
000000d0: bed2 843c 6e13 783d 3734 a43b 43db ff3b
000000e0: b6df f2bc 4164 113d 71cd c3bb 9349 883d
000000f0: 8406 293b 631c 993c cb4d 2f3b 2902 4e3d

pose_classifier_mlp_no_orientation_1/dense_1_1/BiasAdd/ReadVariableOp f4 [64]
-0.021260584 -0.012990926 0.019399073 -0.024290076 -0.0207498 -0.035115015 0.05465229 -0.0027577775
0.08253004 0.026105266 0.082803525 -0.011935801 0.04053774 0.054747723 -0.007902585 0.06995384
0.068842165 0.052160785 0.06735882 -0.05582288 0.016486036 0.044382382 0.010234231 0.06388559
0.07534091 -0.051983688 0.042088594 0.044286758 -0.027114172 0.027614675 -0.039245974 -0.0054187556
-0.0137974555 -0.032846138 0.0842751 -0.02554638 -0.021287873 0.06261514 0.056899928 -0.026217716
0.026893009 0.015597946 0.07878155 0.03387318 0.09110301 0.04564233 0.0012147424 -0.01611982
0.012822975 -0.031185297 0.027275933 0.07539742 -0.0053362073 0.010945262 0.043307588 0.070135385
-0.018395763 0.003575417 0.004382527 0.02148987 -0.0064022434 0.001733599 -0.008883753 -0.057331946
00000000: ad2a aebc e5d7 54bc ceea 9e3c fbfb c6bc
00000010: 7cfb a9bc c3d4 0fbd 14db 5f3d d4bb 34bb
00000020: 8205 a93d b6da d53c e594 a93d 618e 43bc
00000030: e70a 263d 263f 603d d879 01bc f543 8f3d
00000040: 1ffd 8c3d 8ca6 553d 6cf3 893d 88a6 64bd
00000050: b90d 873c 4dca 353d 7aad 273c 73d6 823d
00000060: 564c 9a3d d9ec 54bd 1765 2c3d 0866 353d
00000070: 8a1e debc 2c38 e23c 63c0 20bd d18f b1bb
00000080: b90e 62bc ac89 06bd 6c98 ac3d a446 d1bc
00000090: e863 aebc 5e3c 803d e60f 693d 89c6 d6bc
000000a0: ba4e dc3c 878e 7f3c 3958 a13d 9bbe 0a3d
000000b0: 3794 ba3d 74f3 3a3d fe37 9f3a b60d 84bc
000000c0: 7517 523c 4f78 ffbc c771 df3c f669 9a3d
000000d0: 5adb aebb c253 333c 4c63 313d 24a3 8f3d
000000e0: b6b2 96bc 8b51 6a3b 4d9b 8f3b 860b b03c
000000f0: e9c9 d1bb ee39 e33a 298d 11bc e7d4 6abd

pose_classifier_mlp_no_orientation_1/dense_1_1/MatMul f4 [64, 55]
0.08187231 -0.044590868 0.20836735 0.17317952 -0.13530079 -0.11105386 0.08865592 0.15236878
0.22990277 0.0035269589 -0.16306917 -0.25360522 -0.02588516 0.1389305 -0.19529848 -0.0143894665
-0.115565374 0.095138825 0.024034008 0.119756304 -0.035622038 0.03109287 0.15316032 -0.05329744
0.037551947 -0.18729962 -0.12892532 0.16816619 -0.20552342 -0.12499607 0.17623709 -0.11713967
0.1941573 0.05550361 -0.15888256 -0.06015648 -0.21647207 -0.13755691 0.029614346 -0.010165088
0.0927041 -0.06535777 0.060622774 0.088986926 -0.1774882 0.19021523 0.20163757 0.08742247
-0.17280039 -0.1654701 -0.009469119 0.12123138 -0.02011001 0.16112404 -0.0027158319 -0.18325762
-0.029450534 -0.1409942 -0.02907293 0.15154286 -0.09420405 0.010259339 0.08652601 0.036872298
-0.05962652 -0.1123216 -0.0022111284 0.23714198 -0.2296631 -0.024573185 0.04859165 0.028391946
0.033452448 0.16803563 0.12747021 0.074735984 0.1129693 -0.059480205 0.025356116 0.2007882
0.08245873 -0.10404141 0.06768891 -0.10782606 0.27570912 -0.0073044193 0.07645864 0.26574096
-0.16381992 0.015832923 0.07646726 0.09592181 -0.06011157 0.178851 -0.023139969 -0.02807459
-0.1515056 -0.053818032 0.18625385 -0.003875559 -0.051280674 0.17900081 0.12903105 -0.022951866
-0.049036942 0.004276305 0.1267737 0.1797229 -0.15291129 -0.23200554 0.054783028 0.0062176445
0.099371605 -0.15094322 -0.15116791 -0.1642341 -0.030433446 0.23425154 -0.01725389 0.07700661
-0.05100918 -0.02031407 0.045362953 -0.040461898 -0.29628143 -0.05096666 -0.0159223 -0.031790216
0.12250313 -0.07556952 -0.064982116 0.20588934 0.052280717 0.10203665 -0.23208264 -0.1994275
0.074965686 0.22381707 -0.091991656 -0.19023788 -0.10691559 0.07809714 0.1324233 -0.024322981
0.21119767 -0.2673348 0.0765616 0.17042544 0.13965231 -0.0668339 -0.054179728 -0.03063839
-0.20834391 0.0348115 0.031828426 -0.023148268 -0.0626989 -0.06461535 0.013503409 0.24581563
0.11070986 -0.0806107 -0.037149217 0.24257436 -0.19772981 0.21187615 -0.13765939 -0.21697412
-0.058238808 0.111907996 0.0027595684 0.22503231 -0.1972833 0.20166211 0.012495648 0.16891894
-0.12499498 0.15434335 0.13040668 0.20870452 0.1275026 -0.21268444 -0.022314021 0.027977645
-0.037219614 -0.04022935 0.03518415 0.13132685 0.1715179 0.04967245 -0.04372734 -0.14911813
0.19357511 -0.08424645 0.220292 0.206091 0.083908625 0.18900663 -0.15259057 -0.0027977438
0.023240186 -0.07161624 -0.048816614 -0.1455073 -0.06813261 -0.05464395 0.12438629 -0.010873858
-0.022466727 0.1601996 0.17988849 0.042573947 -0.019613318 -0.09982658 0.047442637 0.16553286
-0.041953605 -0.16255659 0.1706771 -0.1142039 0.08977552 0.17781825 0.11089726 0.060468208
-0.10285933 -0.022785239 -0.19017798 0.021416126 -0.24807554 -0.04201108 0.054121897 0.11316252
0.074076325 -0.09038484 -0.10010691 -0.16854972 -0.17955188 -0.068138786 0.15884009 0.11912598
-0.00096276816 -0.24402873 -0.12109924 -0.165007 0.2770055 -0.08227339 0.23554091 -0.0886764
-0.029753173 0.12629221 0.08947073 -0.23296839 -0.046288896 0.08533295 -0.11161955 0.20016718
00000000: abac a73d eaa4 36bd 405e 553e f955 313e
00000010: 4a8c 0abe 3570 e3bd 3c91 b53d 9006 1c3e
00000020: a26b 6b3e 8d24 673b 9bfb 26be 8bd8 81be
00000030: 1d0d d4bc cc43 0e3e 53fc 47be ccc1 6bbc
00000040: 8aad ecbd 25d8 c23d f8e2 c43c cb42 f53d
00000050: 6ae8 11bd 79b6 fe3c 0fd6 1c3e 6b4e 5abd
00000060: 12d0 193d 79cb 3fbe 0005 04be c233 2c3e
00000070: bb74 52be f1fd ffbd 7f77 343e ece6 efbd
00000080: 2cd1 463e c157 633d 1cb2 22be a466 76bd
00000090: dbaa 5dbe b8db 0cbe c999 f23c 788b 26bc
000000a0: a6db bd3d 4bda 85bd 964f 783d c73e b63d
000000b0: 77bf 35be c8c7 423e 147a 4e3e 8d0a b33d
000000c0: 96f2 30be fe70 29be 5d24 1bbc 2848 f83d
000000d0: bfbd a4bc b3fd 243e 19fc 31bb e3a7 3bbe
000000e0: 3f42 f1bc c960 10be 5a2a eebc 0d2e 1b3e
000000f0: 0eee c0bd c916 283c 8c34 b13d 6807 173d
00000100: f03a 74bd de08 e6bd 94e8 10bb 59d5 723e
00000110: ce2c 6bbe b44d c9bc 0a08 473d 3a96 e83c
00000120: 6f05 093d 8811 2c3e 8d87 023e 2e0f 993d
00000130: 735c e73d 84a1 73bd a1b7 cf3c 6c9b 4d3e
00000140: 1fe0 a83d aa13 d5bd 7ca0 8a3d e9d3 dcbd
00000150: bf29 8d3e e959 efbb 5996 9c3d 330f 883e
00000160: 69c0 27be 0cb4 813c de9a 9c3d a772 c43d
00000170: 8d37 76bd b724 373e 0890 bdbc affc e5bc
00000180: 4924 1bbe 4c70 5cbd 54b9 3e3e 17fd 7dbb
00000190: af0b 52bd fd4b 373e b720 043e 8d05 bcbc
000001a0: f6da 48bd 3f20 8c3b f7d0 013e 4809 383e
000001b0: c794 1cbe dc92 6dbe 2b64 603d 62bd cb3b
000001c0: 5783 cb3d dc90 1abe c3cb 1abe fc2c 28be
000001d0: 904f f9bc a3df 6f3e 0858 8dbc a4b5 9d3d
000001e0: 00ef 50bd b169 a6bc 81ce 393d 60bb 25bd
000001f0: 33b2 97be 6bc2 50bd 7c6f 82bc 7536 02bd
00000200: ece2 fa3d 31c4 9abd 5815 85bd a8d4 523e
00000210: 4e24 563d 97f8 d03d 12a7 6dbe b936 4cbe
00000220: 9c87 993d 4d30 653e 1f66 bcbd b8cd 42be
00000230: 90f6 dabd 65f1 9f3d f999 073e fd40 c7bc
00000240: 3444 583e 1be0 88be 54cc 9c3d 0284 2e3e
00000250: 0401 0f3e 36e0 88bd 90eb 5dbd 5cfd fabc
00000260: 1b58 55be 8196 0e3d 865e 023d 70a1 bdbc
00000270: 4868 80bd 0d55 84bd 673d 5d3c 18b7 7b3e
00000280: dabb e23d 3917 a5bd c729 18bd 6a65 783e
00000290: af79 4abe 10f6 583e 95f6 0cbe 772e 5ebe
000002a0: d18b 6ebd 0530 e53d e0d9 343b df6e 663e
000002b0: a204 4abe 8380 4e3e 8cba 4c3c 16f9 2c3e
000002c0: 5efd ffbd 2f0c 1e3e 5489 053e a3b6 553e
000002d0: 0b90 023e f3c9 59be e5cb b6bc 6031 e53c
000002e0: 9873 18bd 88c7 24bd 411d 103d 8c7a 063e
000002f0: 63a2 2f3e 5775 4b3d 701b 33bd 6cb2 18be
00000300: 8e38 463e 6789 acbd 3a94 613e 8509 533e
00000310: 49d8 ab3d f48a 413e b440 1cbe 5a5a 37bb
00000320: 3462 be3c 89ab 92bd eef3 47bd deff 14be
00000330: 1c89 8bbd 56d2 5fbd 3dbe fe3d 4428 32bc
00000340: 240c b8bc 5d0b 243e b034 383e 0562 2e3d
00000350: 1cac a0bc e171 ccbd 3653 423d 7281 293e
00000360: 8bd7 2bbd 3c75 26be fac5 2e3e bce3 e9bd
00000370: 3adc b73d fd15 363e 1a1e e33d 83ad 773d
00000380: eaa7 d2bd 1ca8 babc 04be 42be df70 af3c
00000390: 8407 7ebe cf13 2cbd ecae 5d3d c0c1 e73d
000003a0: 54b5 973d b01b b9bd da04 cdbd 4c98 2cbe
000003b0: 73dc 37be 598c 8bbd faa6 223e 52f8 f33d
000003c0: 4762 7cba abe2 79be e102 f8bd 98f7 28be
000003d0: aad3 8d3e f37e a8bd a331 713e f99b b5bd
000003e0: edbc f3bc bf52 013e 6e3c b73d 448f 6ebe
000003f0: 6d99 3dbd 0bc3 ae3d ca98 e4bd a0f8 4c3e
